checkpoint/auth-zara1-pretrained/val_best.pth (torch, 43735 bytes, 28 tensors)

st_gcns.0.gcn.conv.bias f4 [5]
0.6729843 0.14764607 0.47393477 0.06421988 -0.21118326
00000000: b348 2c3f 8830 173e 94a7 f23e b685 833d
00000010: 6d40 58be

st_gcns.0.tcn.0.weight f4 [5]
0.97519934 0.96241146 1.010674 1.0439564 1.0048969
00000000: aaa6 793f 9960 763f c45d 813f 5da0 853f
00000010: 76a0 803f

st_gcns.0.tcn.0.bias f4 [5]
0.0007336564 0.00976192 0.015644819 0.03095589 0.022792729
00000000: d952 403a 76f0 1f3c 9029 803c 3597 fd3c
00000010: d1b7 ba3c

st_gcns.0.tcn.0.running_mean f4 [5]
0.021576948 0.0078071957 0.017637715 0.0040653823 -0.0058613587
00000000: 24c2 b03c 81d3 ff3b f87c 903c e636 853b
00000010: a410 c0bb

st_gcns.0.tcn.0.running_var f4 [5]
0.022757253 0.058222994 0.07513784 0.036741376 0.009150909
00000000: 6b6d ba3c 3c7b 6e3d dee1 993d 207e 163d
00000010: b2ed 153c

st_gcns.0.tcn.2.weight f4 [5, 5, 3, 1]
0.117362686 -0.20409426 0.10467747 0.195786 -0.15526722 0.10591694 0.032947294 -0.100975245
-0.19622718 -0.1688248 0.014727246 -0.27424866 -0.08015479 -0.1326283 -0.0451832 -0.12884079
0.1531959 0.16767217 0.10963253 0.11609779 0.008645443 0.018507075 0.068304755 -0.2598409
-0.18649358 -0.31471032 0.0936117 -0.25875995 -0.10775934 -0.16855848 -0.044172082 -0.29375488
0.049971607 0.032574546 0.14593177 0.1415296 0.04636903 0.10103734 0.07914094 0.009018836
-0.25684443 0.18552886 0.024800103 0.017823407 0.14239459 -0.08965256 -0.038544476 -0.036805894
-0.19760878 0.22765897 0.2595118 0.20672789 -0.13409783 -0.24906182 0.24280834 0.11338054
-0.18292816 0.099000625 0.19586425 0.0648821 -0.1605746 -0.040365994 -0.051460117 -0.012552229
0.23915996 -0.15751076 0.18415019 -0.014517857 0.18567647 0.12924775 0.22725901 0.13468784
-0.12397136 0.11427255 0.15099902
00000000: d95b f03d 16fe 50be 2461 d63d 207c 483e
00000010: 5ffe 1ebe fbea d83d bef3 063d 1ccc cebd
00000020: c7ef 48be 69e0 2cbe 8c4a 713c 526a 8cbe
00000030: 3228 a4bd b7cf 07be 0512 39bd d7ee 03be
00000040: 63df 1c3e 41b2 2b3e 0587 e03d aec4 ed3d
00000050: 9ea5 0d3c 269c 973c 5de3 8b3d de09 85be
00000060: 2cf8 3ebe b621 a1be 7eb7 bf3d 2f7c 84be
00000070: eeb0 dcbd 989a 2cbe c9ed 34bd 0a67 96be
00000080: 07af 4c3d e36c 053d 236f 153e 23ed 103e
00000090: 74ed 3d3d aaec ce3d a514 a23d bdc3 133c
000000a0: 1d81 83be 47fb 3d3e 9629 cb3c 6502 923c
000000b0: e3cf 113e c39b b7bd d0e0 1dbd c7c1 16bd
000000c0: f559 4abe 6f1f 693e bbde 843e 7ab0 533e
000000d0: f150 09be 100a 7fbe c0a2 783e 0e34 e83d
000000e0: 8551 3bbe d7c0 ca3d a390 483e e8e0 843d
000000f0: ab6d 24be d056 25bd d8c7 52bd dda7 4dbc
00000100: 59e6 743e 804a 21be de91 3c3e 4edc 6dbc
00000110: f921 3e3e 8659 043e 96b6 683e 9ceb 093e
00000120: b2e4 fdbd ba07 ea3d 7d9f 1a3e

st_gcns.0.tcn.2.bias f4 [5]
-0.18333279 -0.25812966 -0.16465785 0.14512727 0.18205239
00000000: 97bb 3bbe 9229 84be 119c 28be 3e9c 143e
00000010: f16b 3a3e

st_gcns.0.tcn.3.weight f4 [5]
0.8820437 0.8771642 0.94016415 0.86767423 0.84803945
00000000: 9ecd 613f d58d 603f 99ae 703f e61f 5e3f
00000010: 1d19 593f

st_gcns.0.tcn.3.bias f4 [5]
0.012859593 -0.006940681 -0.024954868 -0.0617243 0.018054597
00000000: 0bb1 523c a76e e3bb 276e ccbc 9fd2 7cbd
00000010: 3ce7 933c

st_gcns.0.tcn.3.running_mean f4 [5]
-0.44174284 -0.47088748 -0.05528578 0.28894213 0.4435464
00000000: 1e2c e2be 2a18 f1be 5873 62bd 39f0 933e
00000010: 8418 e33e

st_gcns.0.tcn.3.running_var f4 [5]
0.2579127 0.36700824 0.22959855 0.24125648 0.538183
00000000: 220d 843e 81e8 bb3e e21b 6b3e f00b 773e
00000010: 5cc6 093f

st_gcns.0.residual.0.bias f4 [5]
0.6014519 -0.27834356 -0.44290867 -0.62087303 0.22821723
00000000: c0f8 193f 0c83 8ebe edc4 e2be 89f1 1ebf
00000010: c7b1 693e

st_gcns.0.residual.1.weight f4 [5]
1.042536 1.0631326 0.97947145 1.0403105 1.1052867
00000000: d271 853f bb14 883f a4be 7a3f e528 853f
00000010: 097a 8d3f

st_gcns.0.residual.1.bias f4 [5]
0.012859593 -0.006940681 -0.024954868 -0.0617243 0.018054597
00000000: 0bb1 523c a76e e3bb 276e ccbc 9fd2 7cbd
00000010: 3ce7 933c

st_gcns.0.residual.1.running_mean f4 [5]
0.6261269 -0.3026932 -0.4060335 -0.6033316 0.23378848
00000000: da49 203f 9afa 9abe 9fe3 cfbe f173 1abf
00000010: 3f66 6f3e

st_gcns.0.residual.1.running_var f4 [5]
0.011094833 0.009907601 0.022709692 0.008396766 0.0005281025
00000000: 1ac7 353c 7e53 223c ad09 ba3c 9792 093c
00000010: 5c70 0a3a

tpcnns.0.weight f4 [12, 8, 3, 3]
-0.029218303 0.007607576 -0.0045769433 -0.018569766 -0.029901538 -0.0634863 -0.035642117 -0.034976427
0.040593997 0.03324203 0.009661486 -0.04510578 0.036198046 0.05380333 -0.032575436 -0.001684498
-0.11627502 -0.0785602 -0.07349835 0.0562971 0.008569517 -0.038961157 -0.085669465 -0.08772638
0.023169281 -0.04274859 -0.062205438 -0.036731094 0.053875465 -0.07940102 -0.039374698 0.040646855
0.09565736 0.027452977 -0.053434618 -0.049637865 -0.1314523 -0.028062614 -0.03786238 0.11585998
-0.03793648 -0.08002524 0.07508298 0.094627745 -0.09797765 -0.0522452 -0.05455381 0.062812604
-0.045278832 -0.0363298 -0.06643578 0.07607233 -0.042552885 0.006708837 -0.048027225 0.027573036
-0.08128369 -0.015497336 -0.089134715 -0.030543122 -0.06799537 -0.06774515 0.007327731 -0.11033534
0.04504079 0.032228135 0.100197926 0.038121026 -0.010677022 -0.07569752 -0.081689194 -0.0706315
-0.08838614 -0.0047885673 -0.013946049 0.029375287 0.10099183 -0.04941861 -0.00060748844 0.011074664
0.06627706 0.07298368 0.08420463 0.083940946 -0.014575378 -0.018489398 -0.06315753 -0.009029193
0.14654756 0.01779115 -0.052076604 0.038301792 0.019931335 0.033992816 0.044600487 -0.05678223
0.019950254 -0.020597767 -0.082413375 0.00540298 0.048326015 -0.15414095 -0.045181893 -0.06777211
-0.05069593 0.05119093 0.020001126 0.0069598956 -0.065309145 0.019338628 -0.030377286 0.022711035
-0.01002007 0.018496966 -0.18465663 -0.14639443 -0.10915942 -0.08320754 0.03908491 0.03618521
0.100823656 0.097643875 0.048443045 -0.01814922 -0.008048705 -0.0047843275 -0.035695016 0.021030467
-0.058671083 0.027566971 0.02812202 0.011245136 -0.037720904 -0.032536667 0.057492573 0.013497823
0.086186625 -0.090460055 0.07582214 -0.04035691 0.0399728 -0.008551942 0.11686902 0.09494886
-0.015876077 -0.07201254 -0.052273367 0.025231028 0.0015812049 0.07089619 0.08361845 -0.14517444
-0.036776412 0.047496818 -0.1315267 0.026183786 0.041912585 -0.083214514 0.029775305 -0.005756023
-0.0874076 0.028761446 -0.056288622 -0.025380202 -0.07386634 0.038471006 -0.021516895 -0.069210716
-0.0013017473 -0.108896606 0.045529146 -0.036816757 -0.094596565 -0.07296964 -0.029218625 0.043768987
-0.029334003 0.08794701 -0.07639095 -0.13758181 0.05279258 0.05546108 0.06535848 -0.05767246
0.059470598 -0.045060873 0.0682942 -0.03825023 -0.0066433945 -0.024212176 -0.032977223 -0.10222586
-0.043357767 -0.114022 0.10597723 0.024697416 -0.05521434 -0.057340197 -0.06555615 -0.11227285
0.015240729 -0.003449779 -0.08684162 -0.061255325 0.018597739 -0.04505555 -0.011544695 -0.018844651
-0.03920186 0.060779136 0.06811195 -0.049838606 -0.018004492 0.09901974 -0.083323814 0.11881851
0.051396776 -0.048419606 -0.042421218 -0.0990016 -0.041311532 -0.08260215 0.013341452 -0.063569166
-0.05004538 0.04108319 -0.024380943 -0.118789695 -0.05304064 -0.025839292 -0.07964279 -0.04661524
0.02917334 0.0341637 0.072847635 0.097901024 0.009274033 -0.052081313 0.0375254 -0.0867619
-0.08414706 -0.0699472 0.007450495 0.103036076 0.16157225 0.026149087 -0.03136883 -0.10195788
-0.06259736 -0.114362724 0.05004616 -0.12322237 0.08021294 0.067680426 -0.020302843 0.014559658
00000000: 395b efbc f948 f93b 2ffa 95bb 9f1f 98bc
00000010: 12f4 f4bc 1b05 82bd 78fd 11bd 7143 0fbd
00000020: e445 263d cb28 083d 364b 1e3c d7c0 38bd
00000030: 6744 143d e160 5c3d d26d 05bd 60ca dcba
00000040: 9921 eebd 2ce4 a0bd 4e86 96bd ca97 663d
00000050: 2967 0c3c bc95 1fbd 7973 afbd e3a9 b3bd
00000060: 81cd bd3c 2519 2fbd 21cb 7ebd 5873 16bd
00000070: 85ac 5c3d 019d a2bd 5d47 21bd 517d 263d
00000080: 02e8 c33d 11e5 e03c 42de 5abd 1351 4bbd
00000090: 6f9b 06be 91e3 e5bc 9515 1bbd ff47 ed3d
000000a0: 4863 1bbd 46e4 a3bd 1bc5 993d 31cc c13d
000000b0: 82a8 c8bd 10ff 55bd d173 5fbd e5a3 803d
000000c0: 4c76 39bd 8ece 14bd 7b0f 88bd cfcb 9b3d
000000d0: ef4b 2ebd ced5 db3b 32b8 44bd d9e0 e13c
000000e0: 1078 a6bd 8ae8 7dbc 438c b6bd 9235 fabc
000000f0: 2841 8bbd f8bd 8abd 761d f03b 7ff7 e1bd
00000100: b17c 383d a601 043d 9234 cd3d cb24 1c3d
00000110: adee 2ebc 4d07 9bbd aa4c a7bd 3fa7 90bd
00000120: cb03 b5bd 6ae9 9cbb f87d 64bc 71a4 f03c
00000130: ced4 ce3d 2b6b 4abd dc3f 1fba 8272 353c
00000140: 44bc 873d 7878 953d 7a73 ac3d 3be9 ab3d
00000150: 91cd 6ebc 1477 97bc bc58 81bd 2eef 13bc
00000160: 9010 163e bfbe 913c 474e 55bd 57e2 1c3d
00000170: 0a47 a33c 0d3c 0b3d 00af 363d 7c94 68bd
00000180: b76e a33c a6bc a8bc 58c8 a8bd 7b0b b13b
00000190: 80f1 453d 20d7 1dbe a610 39bd 1bcc 8abd
000001a0: 89a6 4fbd 95ad 513d 67d9 a33c d60f e43b
000001b0: cdc0 85bd 0b6c 9e3c c9d9 f8bc 7e0c ba3c
000001c0: 382b 24bc f386 973c a116 3dbe 6ce8 15be
000001d0: f98e dfbd b768 aabd 8017 203d f136 143d
000001e0: a27c ce3d 83f9 c73d 376c 463d acad 94bc
000001f0: b7de 03bc d9c5 9cbb f034 12bd 1648 ac3c
00000200: 1751 70bd 21d4 e13c 2760 e63c 853d 383c
00000210: 3c81 1abd 2b45 05bd 557d 6b3d f925 5d3c
00000220: 9d82 b03d 1f43 b9bd a348 9b3d 4a4d 25bd
00000230: 85ba 233d 721d 0cbc 0659 ef3d 8c74 c23d
00000240: 8c0e 82bc 507b 93bd 991c 56bd 4db1 ce3c
00000250: 6f40 cf3a 0632 913d 2640 ab3d 9ca8 14be
00000260: dda2 16bd 068c 423d efae 06be 617f d63c
00000270: 88ac 2b3d 5f6c aabd 57eb f33c 059d bcbb
00000280: c102 b3bd 209d eb3c e68e 66bd 24ea cfbc
00000290: 3c47 97bd c693 1d3d 3344 b0bc 59be 8dbd
000002a0: 649f aaba 2f05 dfbd c57c 3a3d 2bcd 16bd
000002b0: d8bb c1bd 1b71 95bd e65b efbc 1c47 333d
000002c0: dd4d f0bc 901d b43d dc72 9cbd 3fe2 0cbe
000002d0: 083d 583d 282b 633d abda 853d f539 6cbd
000002e0: 7197 733d c091 38bd d4dd 8b3d 46ac 1cbd
000002f0: d5b0 d9bb 9d58 c6bc 2013 07bd cb5b d1bd
00000300: ea97 31bd 5e84 e9bd 970a d93d 3c52 ca3c
00000310: 6f28 62bd 8edd 6abd 4e42 86bd 4fef e5bd
00000320: 40b4 793c b015 62bb 05da b1bd dde6 7abd
00000330: 495a 983c 2b8c 38bd f625 3dbc 1960 9abc
00000340: 2192 20bd 8bf3 783d 477e 8b3d 9123 4cbd
00000350: 287e 93bc ddca ca3d ada5 aabd 1e57 f33d
00000360: 6d85 523d a353 46bd dfc1 2dbd 5ac1 cabd
00000370: 4836 29bd 512b a9bd 1b96 5a3c 8d30 82bd
00000380: 62fc 4cbd d946 283d 8bba c7bc 0348 f3bd
00000390: 2441 59bd ecac d3bc c21b a3bd 9fef 3ebd
000003a0: eefc ee3c 3cef 0b3d 2431 953d 5580 c83d
000003b0: 1df2 173c 3753 55bd 3cb4 193d 39b0 b1bd
000003c0: 4b55 acbd 7a40 8fbd 4823 f43b 9404 d33d
000003d0: 3273 253e 9c36 d63c 9a7c 00bd 4bcf d0bd
000003e0: 0b33 80bd 0137 eabd 34fd 4c3d 035c fcbd
000003f0: af46 a43d 099c 8a3d 2652 a6bc a28b 6e3c

tpcnns.0.bias f4 [12]
0.1226891 0.15378895 0.027327636 0.00243007 -0.052442044 -0.007943207 -0.033589438 -0.11086908
-0.10849033 -0.08789305 0.30936596 0.08770806
00000000: 6c44 fb3d da7a 1d3e 35de df3c cf41 1f3b
00000010: 78cd 56bd 3a24 02bc 1495 09bd 540f e3bd
00000020: 2e30 debd 4501 b4bd 3765 9e3e 49a0 b33d

tpcnns.1.weight f4 [12, 12, 3, 3]
-0.050408985 -0.06409824 0.081889346 -0.055985693 -0.083898015 -0.07532694 -0.051938236 0.060470365
-0.0826226 -0.0027174272 0.04105916 0.080126815 0.068342455 -0.03824025 0.03519542 -0.046461593
-0.08127615 0.015099701 -0.0379974 0.052563857 0.050703842 -0.021284537 -0.07371271 -0.042330395
-0.030706288 0.076771945 -0.0028710547 -0.05450954 -0.103344865 -0.0072733033 -0.00024601285 -0.031973284
-0.09295373 -0.004892979 -0.035018656 -0.022965474 0.003365198 -0.062404763 -0.09616479 0.0239747
-0.042218264 0.07612842 0.025257334 -0.024234086 0.05746386 -0.04371458 -0.042978324 -0.011721003
0.09184701 0.08792297 0.009261821 -0.03288987 0.061160583 0.06488336 0.02987054 -0.06317711
-0.078978635 0.06848089 -0.0054284297 0.08955952 -0.07160567 -0.018350001 -0.057879377 0.0006173923
0.075418316 0.0011061339 -0.08053476 0.004971272 0.032528855 0.06840599 0.09874249 -0.099774346
-0.0356566 -0.09764538 0.049548797 0.059453204 0.019733367 -0.0014246042 -0.059683558 -0.07127425
0.0848682 0.07026612 0.02288319 0.068662174 -0.07711445 0.008471596 0.028739652 -0.04479101
-0.032638576 0.0026726616 0.043655656 0.046472214 0.002600029 -0.0019901127 -0.0134794675 0.037242386
-0.027519226 -0.011766585 0.049690798 -0.047861252 0.001388903 -0.027463669 0.019370096 -0.08109091
0.09523767 0.058549356 -0.091049194 -0.056614757 -0.025204457 0.017948855 -0.019353447 -0.07339529
-0.06264705 -0.0029387397 -0.078570314 0.06128166 0.08782331 -0.04371396 -0.059731856 -0.11102741
-0.10358408 -0.124272905 -0.038428605 -0.07840327 0.071631 -0.048003387 -0.030770129 -0.04504171
-0.032212827 -0.0314155 0.08401904 -0.00087064976 -0.06649968 -0.015197032 0.0007313735 -0.0051680184
0.025882257 0.018527227 0.0014416396 0.08061289 -0.08886403 -0.011424438 -0.05826826 0.0118901925
-0.08049482 0.053228907 0.09080498 0.048638657 -0.03239148 -0.03652539 0.08314093 0.069232434
0.0088450555 0.039842818 0.0097117005 0.0022616119 -0.03600604 0.011418666 0.06617091 0.025366401
0.011009044 0.020137548 -0.06998649 0.013969022 0.016193457 -0.0578713 0.07865609 0.032543246
-0.004439087 -0.06046966 -0.045875497 0.007532724 -0.067380786 0.07854819 0.07048296 0.004024908
0.009346705 -0.048589513 0.07110001 0.04067681 -0.0642571 -0.086757414 -0.07161746 -0.037925802
0.05721018 0.05761827 0.036142495 -0.0026103875 -0.09844283 0.07602493 0.033888735 -0.09118223
-0.021837316 -0.023758957 -0.05717664 -0.020347968 -0.095116265 0.054886043 0.04807866 -0.07872335
-0.07009885 -0.059157554 -0.07240137 -0.044915985 -0.034718204 -0.06898664 -0.06990639 0.018125026
-0.012636992 0.070945494 0.015213473 0.055936966 0.07612821 -0.025693908 -0.083564445 -0.04702263
0.059723727 0.024214726 -0.092918396 -0.06529528 0.01677513 -0.050414108 -0.015617971 0.025383795
-0.008520273 0.02730571 0.0085220495 0.05326471 -0.00028799416 0.046016052 -0.05576624 0.0714659
0.090507746 -0.020159665 -0.058499124 0.020673089 0.03658516 0.037922997 0.03473372 0.020715892
0.016881062 0.017992165 0.022352405 -0.050741874 -0.003063575 -0.040455583 -0.040119234 0.11508059
-0.039391506 -0.017886221 0.020963155 0.066704854 0.07417201 0.083640076 0.038629323 0.08260968
00000000: a779 4ebd f045 83bd 9ab5 a73d 4151 65bd
00000010: b9d2 abbd 0345 9abd 30bd 54bd c6af 773d
00000020: 0a36 a9bd dd16 32bb a62d 283d 8719 a43d
00000030: 21f7 8b3d cfa1 1cbd 1329 103d 834e 3ebd
00000040: 1c74 a6bd bc64 773c 29a3 1bbd 334d 573d
00000050: d5ae 4f3d e95c aebc b0f6 96bd a362 2dbd
00000060: c18b fbbc 9c3a 9d3d 4e28 3cbb 6545 5fbd
00000070: 79a6 d3bd e454 eebb 49fb 80b9 6bf6 02bd
00000080: 865e bebd 4855 a0bb b96f 0fbd 1722 bcbc
00000090: a78a 5c3b 239c 7fbd 0cf2 c4bd 9766 c43c
000000a0: 0fed 2cbd 38e9 9b3d 78e8 ce3c 9086 c6bc
000000b0: 395f 6b3d 0f0e 33bd 0a0a 30bd 7309 40bc
000000c0: 491a bc3d f510 b43d e5be 173c 87b7 06bd
000000d0: 8583 7a3d 91e1 843d 10b3 f43c 0063 81bd
000000e0: 8dbf a1bd b53f 8c3d f8e0 b1bb fb6a b73d
000000f0: fea5 92bd be52 96bc ed12 6dbd 7fd8 213a
00000100: eb74 9a3d b2fb 903a 69ef a4bd 0de6 a23b
00000110: fa3c 053d 7118 8c3d 8139 ca3d 7e56 ccbd
00000120: a80c 12bd 4dfa c7bd aef3 4a3d 3485 733d
00000130: dfa7 a13c c9b9 baba bf76 74bd 3cf8 91bd
00000140: 61cf ad3d afe7 8f3d 8775 bb3c c19e 8c3d
00000150: 2eee 9dbd 73cc 0a3c 6b6f eb3c c776 37bd
00000160: 07b0 05bd d227 2f3b 46d0 323d a659 3e3d
00000170: 4065 2a3b 8d6c 02bb fcd8 5cbc 798b 183d
00000180: 0070 e1bc a2c8 40bc 9488 4b3d 290a 44bd
00000190: da0b b63a 7dfb e0bc 09ae 9e3c fe12 a6bd
000001a0: f80b c33d 73d1 6f3d 0078 babd e0e4 67bd
000001b0: 9479 cebc 7a09 933c 1f8b 9ebc 4550 96bd
000001c0: 194d 80bd df97 40bb 79e9 a0bd 7a02 7b3d
000001d0: b5dc b33d 690d 33bd 64a9 74bd 5762 e3bd
000001e0: e423 d4bd cb82 febd 5067 1dbd e591 a0bd
000001f0: 46b3 923d 339f 44bd a311 fcbc a87d 38bd
00000200: 99f1 03bd 8aad 00bd 2d12 ac3d 513c 64ba
00000210: fc30 88bd f9fc 78bc a5b9 3f3a 7b58 a9bb
00000220: 0707 d43c 69c6 973c 66f5 bc3a 5f18 a53d
00000230: 58fe b5bd 912d 3bbc b3aa 6ebd 15cf 423c
00000240: 78da a4bd 8e06 5a3d f6f7 b93d 5439 473d
00000250: eeac 04bd a69b 15bd cb45 aa3d bcc9 8d3d
00000260: daea 103c 3932 233d d31d 1f3c 8d37 143b
00000270: 127b 13bd 5b15 3b3c 9d84 873d 33cd cf3c
00000280: 475f 343c 80f7 a43c 1455 8fbd 53de 643c
00000290: 24a8 843c 750a 6dbd 7216 a13d 114c 053d
000002a0: c375 91bb 09af 77bd f2e7 3bbd 12d5 f63b
000002b0: f0fe 89bd e0dd a03d 5f59 903d 60e3 833b
000002c0: ec22 193c cc05 47bd e29c 913d ba9c 263d
000002d0: 3a99 83bd dfad b1bd 2dac 92bd 1658 1bbd
000002e0: 3955 6a3d 2301 6c3d 270a 143d 0913 2bbb
000002f0: 659c c9bd f5b2 9b3d eace 0a3d c0bd babd
00000300: 2ce4 b2bc 25a2 c2bc 0d32 6abd c8b0 a6bc
00000310: 51cc c2bd 30d0 603d 21ee 443d b539 a1bd
00000320: fc8f 8fbd 314f 72bd 2b47 94bd d3f9 37bd
00000330: ad34 0ebd de48 8dbd 152b 8fbd ef7a 943c
00000340: 630b 4fbc df4b 913d ee41 793c 291e 653d
00000350: 1be9 9b3d 087c d2bc d623 abbd cd9a 40bd
00000360: dea0 743d f65d c63c 004c bebd 88b9 85bd
00000370: ff6b 893c 067f 4ebd 85e2 7fbc adf1 cf3c
00000380: 9d98 0bbc 39b0 df3c 11a0 0b3c 192c 5a3d
00000390: ecfd 96b9 547b 3c3d 246b 64bd b75c 923d
000003a0: 205c b93d e225 a5bc c79c 6fbd 9c5a a93c
000003b0: 52da 153d 2555 1b3d f244 0e3d 60b4 a93c
000003c0: 274a 8a3c 4e64 933c 641c b73c b6d6 4fbd
000003d0: 42c6 48bb c1b4 25bd 1154 24bd 5faf eb3d
000003e0: fd58 21bd 2086 92bc ecba ab3c 8e9c 883d
000003f0: 7fe7 973d 7d4b ab3d c839 1e3d 442f a93d

tpcnns.1.bias f4 [12]
0.08852684 0.18643649 -0.107700236 0.12085405 -0.06981352 0.11297972 0.20531923 -0.009865419
0.073029 0.10976368 -0.026301933 0.019023167
00000000: 8f4d b53d 35e9 3e3e f191 dcbd 5482 f73d
00000010: 64fa 8ebd e961 e73d 343f 523e 91a2 21bc
00000020: 3a90 953d c8cb e03d 2777 d7bc 79d6 9b3c

tpcnns.2.weight f4 [12, 12, 3, 3]
-0.044548634 0.059834916 0.052234787 0.033944324 -0.082603596 0.03809886 0.07031297 -0.07934153
-0.104913935 -0.09762484 0.024626 0.035078034 -0.046234533 0.03545546 -0.070188925 -0.002337575
-0.0038085105 -0.066972665 -0.08374791 0.052901905 0.062931255 0.03935536 -0.016277561 0.02388056
-0.03418012 -0.0071409745 -0.008264419 0.04376585 -0.06764625 0.03019761 0.06899433 -0.01345841
-0.0042110095 -0.08111171 0.029999427 0.07940287 0.034059066 -0.03186363 0.015629528 -0.04708575
-0.07338038 -0.084842935 -0.018472197 -0.01493176 0.03467708 -0.013063451 -0.058353562 0.061492298
0.048110966 -0.056453023 -0.09415335 0.063528605 -0.05398255 0.036908012 0.03437151 -0.029331809
0.0063960534 0.052646983 0.013654988 0.018481372 0.05686384 0.033769984 0.00065675203 -0.081502184
0.08738421 -0.014572658 0.1010809 -0.078095056 0.08482257 0.0049000187 0.002269628 -0.036763035
0.05734183 0.04644636 0.069941334 0.029017502 0.0415274 -0.010923342 0.07526486 -0.03787163
0.008287701 -0.03551019 -0.017681973 0.0706125 0.10169069 0.08962732 -0.06866605 -0.04569425
0.11598718 0.080398925 -0.038964476 -0.09856973 0.022853918 -0.078737535 -0.075985484 -0.09145476
0.07573324 0.045627385 -0.0019421407 0.016163768 -0.043708183 0.011487156 -0.03988939 -0.07123861
-0.027133046 -0.045589793 -0.06532105 -0.037014287 -0.014090766 -0.037564423 -0.032041967 -0.061073225
-0.053578373 0.07086441 -0.07750953 0.034187872 -0.09027757 0.008820364 -0.026296062 -0.113292806
-0.12845257 -0.11520405 -0.07109429 0.019387115 0.015086337 0.081412226 -0.082563125 -0.031860277
-0.051080767 0.032920614 -0.09430235 -0.0036222509 0.0625718 -0.08439674 0.036650583 0.028057594
-0.084730424 -0.0153220855 0.04533716 0.07393815 0.04532233 0.008227835 -0.08495124 7.629568e-05
-0.026242979 0.05415575 -0.015187143 -0.0024375261 0.08644106 -0.020846559 0.066755354 -0.059097026
0.068827115 -0.058978617 -0.03729212 -0.12156346 -0.09382678 -0.026740132 0.010897702 -0.13378665
0.06488207 -0.078751385 -0.0864968 -0.087160096 -0.10541532 -0.105396695 0.023416208 -0.0315631
0.048891183 -0.006693928 0.028403524 -0.07896376 0.0055650612 0.08632902 0.0641357 -0.021315057
-0.03153268 0.0466019 0.034327526 0.03074093 0.040708285 -0.039300155 0.05415732 -0.045074053
0.01282089 -0.08298841 0.07617604 0.030520933 0.06405647 -0.02857835 -0.08149663 -0.0023490712
0.0582973 -0.058514692 -0.027845673 -0.11294428 -0.07553699 0.031594742 -0.07368523 -0.03862755
-0.017622259 -0.017294811 -0.0039898753 0.001081087 -0.11435565 -0.0170755 -0.039669096 -0.044464137
0.09126171 -0.07904148 0.07738244 0.055814724 2.5696403e-05 0.057439942 0.056002617 -0.07470495
0.03612155 0.00067120534 -0.0030135706 -0.029596755 0.04807354 0.052256715 0.03050807 0.11791912
0.082746856 0.017979695 -0.034073003 0.059284706 -0.10800478 0.0122638885 -0.08537032 0.041040733
0.10671224 -0.012692142 -0.05324197 -0.07489615 -0.06521727 -0.0035023845 -0.07960268 0.010162657
-0.02894238 -0.007288396 0.05010492 0.006902729 -0.021369586 0.027120296 -0.08369414 -0.07820711
-0.08302735 0.034601163 0.12890017 0.005872297 0.013900587 -0.13014185 -0.013627619 0.027453763
00000000: a178 36bd 7515 753d 25f4 553d 3409 0b3d
00000010: 132c a9bd 8d0d 1c3d 3f00 903d d07d a2bd
00000020: 1edd d6bd 88ef c7bd 77bc c93c fcad 0f3d
00000030: 6c60 3dbd bf39 113d 36bf 8fbd 0032 19bb
00000040: 3498 79bb f728 89bd 0684 abbd abaf 583d
00000050: 1ae2 803d 1633 213d 8558 85bc 2aa1 c33c
00000060: 7400 0cbd d6fe e9bb 7c67 07bc d243 333d
00000070: 1e8a 8abd fa60 f73c e64c 8d3d aa80 5cbc
00000080: 82fc 89bb e51d a6bd 5cc1 f53c f99d a23d
00000090: 8581 0b3d 7083 02bd 7f09 803c fddc 40bd
000000a0: 7448 96bd 22c2 adbd 0153 97bc 57a4 74bc
000000b0: 8e09 0e3d 1608 56bc 2504 6fbd 59df 7b3d
000000c0: 0110 453d 493b 67bd 79d3 c0bd 491b 823d
000000d0: ce1c 5dbd db2c 173d 24c9 0c3d 4349 f0bc
000000e0: fc95 d13b 5da4 573d 2cb9 5f3c 3f66 973c
000000f0: 0fea 683d 6552 0a3d e229 2c3a 9eea a6bd
00000100: 7ef6 b23d 28c2 6ebc 8103 cf3d 4df0 9fbd
00000110: 75b7 ad3d 5690 a03b 0abe 143b d694 16bd
00000120: 44df 6a3d 8a3e 3e3d 673d 8f3d 1db6 ed3c
00000130: a318 2a3d d1f7 32bc 7724 9a3d 481f 1bbd
00000140: 23c9 073c 2273 11bd c9d9 90bc 499d 903d
00000150: 3543 d03d 878e b73d c9a0 8cbd e529 3bbd
00000160: b08a ed3d 31a8 a43d 3799 1fbd edde c9bd
00000170: 2438 bb3c 2541 a1bd 479e 9bbd a24c bbbd
00000180: 071a 9b3d c8e3 3a3d 6e8f feba e169 843c
00000190: 5a07 33bd a034 3c3c 0f63 23bd 8ce5 91bd
000001a0: 1f46 debc 5dbc 3abd 0bc7 85bd 4b9c 17bd
000001b0: f5dc 66bc 27dd 19bd 703e 03bd eb27 7abd
000001c0: ff74 5bbd 5c21 913d 51bd 9ebd 9508 0c3d
000001d0: 72e3 b8bd 4a83 103c d76a d7bc 0f06 e8bd
000001e0: 1289 03be 1af0 ebbd e299 91bd bad1 9e3c
000001f0: af2c 773c 74bb a63d db16 a9bd ec7f 02bd
00000200: 113a 51bd c4d7 063d 9721 c1bd 4963 6dbb
00000210: a525 803d 33d8 acbd ec1e 163d 0ad9 e53c
00000220: 2587 adbd 7c09 7bbc 75b3 393d e36c 973d
00000230: e8a3 393d 0bce 063c eafa adbd ee00 a038
00000240: 84fb d6bc 6bd2 5d3d 7fd3 78bc e7be 1fbb
00000250: 0308 b13d 67c6 aabc 08b7 883d b90f 72bd
00000260: 3bf5 8c3d 9093 71bd 9fbf 18bd 43f6 f8bd
00000270: 4128 c0bd 1f0e dbbc 468c 323c 5eff 08be
00000280: e4e0 843d 6848 a1bd 3c25 b1bd fe80 b2bd
00000290: fde3 d7bd 39da d7bd 59d3 bf3c 4f48 01bd
000002a0: 1f42 483d bd58 dbbb 82ae e83c c0b7 a1bd
000002b0: 1e5b b63b 45cd b03d 9459 833d ea9c aebc
000002c0: 6928 01bd a2e1 3e3d 059b 0c3d 67d4 fb3c
000002d0: bbbd 263d 33f9 20bd 11d4 5d3d 929f 38bd
000002e0: b60e 523c d4f5 a9bd 2f02 9c3d 0907 fa3c
000002f0: 0a30 833d 251d eabc b5e7 a6bd e0f2 19bb
00000300: 26c9 6e3d 1aad 6fbd 9c1c e4bc 554f e7bd
00000310: 23b3 9abd 7d69 013d 48e8 96bd ec37 1ebd
00000320: 8e5c 90bc d9ad 8dbc 80bd 82bb 43b3 8d3a
00000330: 4c33 eabd ebe1 8bbc 107c 22bd 0720 36bd
00000340: 6be7 ba3d 80e0 a1bd af7a 9e3d fb9d 643d
00000350: 9b8e d737 2546 6b3d 0063 653d e9fe 98bd
00000360: 31f4 133d d4f3 2f3a 537f 45bb e574 f2bc
00000370: c3e8 443d 230b 563d 0fec f93c 947f f13d
00000380: 2f77 a93d 274a 933c 2290 0bbd 85d4 723d
00000390: 9c31 ddbd 7aee 483c a2d6 aebd 541a 283d
000003a0: f28b da3d b4f2 4fbc 4014 5abd 2763 99bd
000003b0: a290 85bd 4388 65bb bb06 a3bd 4681 263c
000003c0: 9218 edbc 7fd3 eebb d13a 4d3d 4a30 e23b
000003d0: 450f afbc 622b de3c d567 abbd 0d2b a0bd
000003e0: 3e0a aabd f3b9 0d3d 68fe 033e 666c c03b
000003f0: 4abf 633c e843 05be 6046 5fbc b7e6 e03c

tpcnns.2.bias f4 [12]
0.06470136 0.3113199 0.114554375 0.16396388 -0.03364663 0.09369706 0.31314215 -0.08298194
0.09214068 0.17327538 0.028420812 -0.07847883
00000000: 2682 843d 5265 9f3e 7c9b ea3d 26e6 273e
00000010: 0cd1 09bd 3fe4 bf3d 2b54 a03e 6ff2 a9bd
00000020: 41b4 bc3d 1a6f 313e c3d2 e83c 82b9 a0bd

tpcnns.3.weight f4 [12, 12, 3, 3]
0.075271115 0.06295272 0.07615637 -0.027371801 0.044420213 -0.046008013 -0.015784258 0.0015677799
-0.062479835 -0.0037526789 -0.052313894 -0.006581869 0.014958609 -0.06725606 -0.063889325 -0.026803877
-0.03192005 0.07755442 0.011189123 0.00055416435 0.06319951 0.037167706 -0.08505774 0.07580771
0.020891491 0.045789942 0.09106697 -0.035090134 -0.086125456 -0.09307166 0.03599189 -0.08539094
-0.050332498 -0.035827044 -0.058998212 0.072550416 0.033088844 0.01083927 -0.031000474 -0.003743312
0.07664515 -0.09349817 -0.046313934 -0.0036012775 0.027349815 -0.03969575 0.054367367 -0.07069353
0.045062095 -0.0063141095 -0.02082812 0.033536997 -0.079222515 -0.024260024 -0.009207053 0.029588189
-0.007871138 -0.069264315 -0.051729158 0.007209974 0.0052804044 -0.095339455 0.020624105 0.0087088635
0.06762256 -0.010615889 -0.009417468 0.084957436 -0.00923521 -0.042433627 -0.04420109 -0.030631494
-0.058942586 0.03064256 -0.039724987 0.06346463 0.03150238 0.061446656 0.08150452 -0.06297635
0.079685174 0.012640687 -0.027884802 -0.032623094 -0.08991517 -0.04021461 -0.073104665 -0.029804762
0.06240663 0.039855402 -0.036478795 -0.07440185 0.0070394813 -0.012063333 0.065025315 0.029866591
-0.0076163765 -0.018356152 0.062158067 -0.04052508 -0.07449566 -0.0057161627 -0.021621961 -0.013720866
0.05112653 0.07670391 0.05547983 0.08799583 0.0047081695 -0.050433155 0.0970456 -0.024990188
0.004481306 -0.008954545 -0.06717455 0.07887188 0.011861984 0.04050705 0.03670229 0.06590113
-0.116156094 -0.051425423 0.026394868 -0.10038436 0.01763813 0.0026015986 -0.06702718 -0.07324566
-0.020508833 -0.0015226795 0.016875356 -0.041678894 -0.034826323 0.09017459 0.020786233 -0.0011337198
-0.08658821 0.08213202 -0.11881812 -0.06902953 0.00912269 -0.048023038 -0.10887752 -0.027526837
-0.043348994 0.020026542 -0.05164734 -0.08629264 -0.048404187 -0.09846572 -0.041390494 0.023881018
0.0041883886 -0.049267918 0.026092842 -0.044832636 0.074016444 -0.06857339 -0.07417483 -0.064678594
0.029241603 -0.05135625 0.048527937 -0.00025977512 0.0027289279 -0.05963943 -0.07305535 0.060116265
0.028929636 0.09795872 -0.065051876 -0.08385047 -0.10167312 -0.085062124 -0.018745128 -0.06706184
-0.03532255 0.036083166 0.02102185 -0.07195549 -0.06323563 0.042553417 -0.07042555 -0.07788926
0.089043 -0.10132501 -0.011679021 -0.027772317 -0.01009638 0.052668706 0.06277683 -0.018691197
-0.1046174 0.025350537 0.05834688 -0.052858334 -0.06258172 -0.061321005 -0.08355059 -0.072014436
0.039438613 -0.008461994 0.08316103 0.083624616 0.0775464 0.01843396 -0.02992085 0.069308534
-0.036055 0.09058026 -0.046054557 -0.027667351 -0.056394316 0.038879577 0.07500136 0.089415036
-0.046860505 -0.055539127 -0.032570682 -0.039439753 -0.048105985 -0.035919547 -0.060300887 0.009751718
-0.009645546 0.020199943 0.06686404 0.022172814 0.0076842373 -0.008231367 -0.102972485 -0.066469625
0.10273691 0.06344884 -0.0574228 0.034088437 -0.046227768 0.07407735 -0.053023983 -0.019527676
0.055953562 0.07645831 -0.056870464 -0.11625979 0.06337099 -0.07750378 -0.042782065 -0.014212034
-0.056822702 0.08217191 0.16347171 0.10219199 0.053110488 0.030861221 -0.064330675 -0.0038921724
00000000: be27 9a3d 5bed 803d dff7 9b3d d43a e0bc
00000010: f8f1 353d e672 3cbd fd4d 81bc f77d cd3a
00000020: dbea 7fbd 81ef 75bb 1847 56bd b8ac d7bb
00000030: f414 753c 8cbd 89bd 68d8 82bd ce93 dbbc
00000040: 99be 02bd dad4 9e3d 9552 373c 5745 113a
00000050: bf6e 813d 2a3d 183d c132 aebd 1341 9b3d
00000060: a224 ab3c 3c8e 3b3d 5281 ba3d acba 0fbd
00000070: 8b62 b0bd 5b9c bebd 3b6c 133d 72e1 aebd
00000080: 7329 4ebd 61bf 12bd 1ca8 71bd 5095 943d
00000090: 2b88 073d 3297 313c b5f4 fdbc 5b52 75bb
000000a0: 22f8 9c3d f87b bfbd aeb3 3dbd 6903 6cbb
000000b0: b80c e03c 0398 22bd 51b0 5e3d c5c7 90bd
000000c0: 0893 383d 97e6 cebb bc9f aabc 175e 093d
000000d0: 6a3f a2bd f5bc c6bc 2ed9 16bc ee62 f23c
000000e0: f2f5 00bc 73da 8dbd f4e1 53bd a541 ec3b
000000f0: 3e07 ad3b 5541 c3bd e2f3 a83c 9faf 0e3c
00000100: b27d 8a3d 44ee 2dbc b94b 1abc 2afe ad3d
00000110: 474f 17bc e2ce 2dbd 340c 35bd e6ee fabc
00000120: c86d 71bd 1b06 fb3c abb6 22bd bef9 813d
00000130: a408 013d 7daf 7b3d d7eb a63d bff9 80bd
00000140: fb31 a33d e21a 4f3c ab6e e4bc cb9f 05bd
00000150: 7225 b8bd 13b8 24bd e6b7 95bd 1e29 f4bc
00000160: 189e 7f3d 6b3f 233d ca6a 15bd ff5f 98bd
00000170: 73ab e63b 49a5 45bc fe2b 853d c8aa f43c
00000180: cc92 f9bb a45f 96bc 7599 7e3d a0fd 25bd
00000190: 2e91 98bd a64e bbbb 8a20 b1bc 7ccd 60bc
000001a0: 0d6a 513d f116 9d3d d13e 633d 2837 b43d
000001b0: fd46 9a3b ff92 4ebd d8bf c63d 39b8 ccbc
000001c0: ebd7 923b 15b6 12bc cf92 89bd 9587 a13d
000001d0: c458 423c b8ea 253d 2455 163d 2cf7 863d
000001e0: 3fe3 edbd 77a3 52bd 0d3a d83c 5196 cdbd
000001f0: d77d 903c 957f 2a3b 8c45 89bd d201 96bd
00000200: 2402 a8bc a594 c7ba 303e 8a3c 7db7 2abd
00000210: 0ca6 0ebd 75ad b83d e447 aa3c 5399 94ba
00000220: 2955 b1bd d534 a83d ea56 f3bd 5b5f 8dbd
00000230: 5677 153c ceb3 44bd 2dfb debd f67f e1bc
00000240: b78e 31bd b40e a43c 298c 53bd 32ba b0bd
00000250: 7843 46bd 65a8 c9bd 1489 29bd 20a2 c33c
00000260: c03e 893b 28cd 49bd a8c0 d53c 6da2 37bd
00000270: ef95 973d 3570 8cbd f9e8 97bd 3676 84bd
00000280: 168c ef3c ee5a 52bd 3bc5 463d 6d32 88b9
00000290: d0d7 323b 7a48 74bd 0b9e 95bd 793c 763d
000002a0: d8fd ec3c 959e c83d eb39 85bd ccb9 abbd
000002b0: ff39 d0bd 0d35 aebd 628f 99bc b857 89bd
000002c0: 61ae 10bd f1cb 133d 0436 ac3c 665d 93bd
000002d0: af81 81bd 7e4c 2e3d 453b 90bd 6884 9fbd
000002e0: 2d5c b63d 7d83 cfbd 5d59 3fbc c582 e3bc
000002f0: 496b 25bc 24bb 573d 2391 803d 481e 99bc
00000300: a641 d6bd eeab cf3c 23fd 6e3d fb81 58bd
00000310: d82a 80bd bc2b 7bbd 921c abbd 4e7c 93bd
00000320: 628a 213d 2da4 0abc 5550 aa3d 6243 ab3d
00000330: a6d0 9e3d d102 973c 921c f5bc a2f1 8d3d
00000340: 68ae 13bd 2582 b93d b4a3 3cbd a4a6 e2bc
00000350: bafd 66bd 3140 1f3d 509a 993d 3b1f b73d
00000360: cdf0 3fbd ff7c 63bd d668 05bd 948b 21bd
00000370: c80a 45bd 6020 13bd 10fe 76bd abc5 1f3c
00000380: 5a08 1ebc 5a7a a53c 04f0 883d c3a3 b53c
00000390: 0ecc fb3b dbdc 06bc 3de3 d2bd 3a21 88bd
000003a0: bb67 d23d 77f1 813d 2c34 6bbd 51a0 0b3d
000003b0: 5459 3dbd deb5 973d ad2f 59bd 81f8 9fbc
000003c0: 902f 653d 2d96 9c3d 01f1 68bd 9d19 eebd
000003d0: a6c8 813d 4dba 9ebd 3f3c 2fbd 97d9 68bc
000003e0: ecbe 68bd bf49 a83d 2165 273e 094a d13d
000003f0: 628a 593d acd0 fc3c cdbf 83bd d113 7fbb

tpcnns.3.bias f4 [12]
0.08312427 0.020459099 0.1605326 0.07750678 -0.033770613 0.017798197 0.32916203 -0.16014315
0.011675188 0.013674953 0.02331056 0.044687737
00000000: 0f3d aa3d d799 a73c a862 243e e0bb 9e3d
00000010: 0e53 0abd 86cd 913c ed87 a83e 91fc 23be
00000020: 4a49 3f3c e90c 603c caf5 be3c 7d0a 373d

tpcnns.4.weight f4 [12, 12, 3, 3]
0.07581045 -0.052174248 0.043911323 0.068696 -0.094473414 0.017231753 0.078696564 -0.078641616
0.08302141 0.023518689 -0.009462751 -0.084325194 -0.037968777 -0.078231506 -0.028238123 -0.054145355
-0.03213866 0.002433934 0.033169653 -0.040194318 -0.061326414 -0.016947309 0.06080897 -0.03171684
0.04425109 -0.019224264 -0.06653921 -0.005613604 0.038418002 -0.04465803 -0.031379916 0.06967324
-0.014963493 0.07203828 0.075339556 -0.016835421 -0.022329407 -0.0012060868 -0.05194568 0.008907444
-0.077852175 -0.095088944 0.08724367 -0.055773515 -0.03848038 0.023291083 0.067104146 -0.023756722
0.06872568 0.036410384 0.06513356 0.066878065 -0.0642634 -0.04238834 -0.013866999 0.070878625
-0.017500011 -0.09191721 -0.06754296 0.05243706 -0.058712397 -0.03591119 0.011403207 0.02356035
-0.039969694 0.020036334 -0.013227221 0.010335654 -0.058212485 -0.023918886 -0.018269664 0.041053135
-0.083375566 -0.08269965 -0.02951971 -0.028634306 -0.082156114 0.059042074 -0.06097061 -0.052243534
0.03047104 0.066129185 -0.079531774 -0.0085194055 -0.08425009 0.0061487453 0.06710895 0.016898613
0.028358614 0.080716066 -0.09609702 -0.010925982 0.022608 0.007420687 0.058676127 0.00924688
0.053048033 -0.015675997 -0.011011956 -0.046344373 0.034873236 -0.026735546 -0.004408859 -0.08027573
0.09131432 0.08874 -0.05540117 -0.06817856 -0.08429467 -0.04583385 0.08914337 -0.024303254
0.030645812 -0.058618177 0.07758224 0.028667811 -0.028731866 -0.06916197 -0.007983542 -0.057877053
0.06753875 0.037231714 0.018325975 0.03884792 0.0728664 -0.0931574 -0.05864176 -0.014478044
0.010912114 0.07534972 -0.06146956 -0.0067684045 0.0014670158 -0.023291817 0.04233749 -0.06427752
0.0848362 -0.07591919 0.033812888 -0.07242874 -0.09025801 0.059150048 0.065816484 -0.09505519
0.02667085 -0.027178485 0.084759496 0.08887244 0.08859912 0.054486796 0.07721694 0.04487146
-0.03886858 0.042482745 0.037452355 0.074055545 0.06441673 -0.009576921 0.08864802 0.010598785
-0.02587368 -0.07022326 0.03883389 0.082715616 -0.03758894 -0.04765846 0.07258876 -0.05179025
0.008371936 -0.054290783 0.030151427 -0.08843661 -0.023678547 0.021146376 -0.015095604 0.07200481
-0.0920854 0.0853829 0.06280751 -0.007506409 0.031854343 -0.015816001 -0.027581355 -0.027922546
-0.04079106 -0.077775665 0.013698239 -0.046638418 0.067145795 -0.05692 0.07542219 -0.09337356
0.08462683 -0.078416996 0.025964804 0.014603857 0.043384843 -0.061252173 0.08421312 0.07953377
0.03614482 0.05782604 -0.041224945 -0.063165925 -0.0829648 -0.0002912696 0.014617978 0.0851114
-0.07708195 -0.018646564 -0.029905582 0.033641603 0.06520479 0.0032054682 -0.08393844 -0.066309735
-0.029157184 -0.04931191 0.074935466 -0.024428103 0.07228808 -0.07573962 -0.0021603068 -0.09276113
-0.052013323 -0.03289074 0.06523556 -0.021676607 0.034398053 0.032048684 -0.069409944 0.032848228
-0.058882684 0.058533717 0.041547682 -0.06973631 -0.059913952 0.027529186 -0.05367672 -0.023566132
-0.028904181 0.0028735227 -0.01850007 -0.026148282 0.06849267 0.02970913 -0.05910553 -0.06694078
0.01315906 -0.0667302 -0.037095644 -0.07771078 -0.059823424 0.03312758 0.05843448 -0.0027667743
00000000: 8242 9b3d aab4 55bd 5cdc 333d 7db0 8c3d
00000010: 477b c1bd 9b29 8d3c aa2b a13d db0e a1bd
00000020: 2107 aa3d 44aa c03c a809 1bbc b0b2 acbd
00000030: 2685 1bbd d737 a0bd a353 e7bc 85c7 5dbd
00000040: d4a3 03bd a382 1f3b e7dc 073d cca2 24bd
00000050: 6831 7bbd 15d5 8abc d412 793d 84e9 01bd
00000060: a240 353d 347c 9dbc b645 88bd 53f2 b7bb
00000070: 325c 1d3d 57eb 36bd 3a88 00bd d8b0 8e3d
00000080: 7029 75bc ce88 933d a04b 9a3d 70ea 89bc
00000090: 29ec b6bc 8f15 9eba fec4 54bd 87f0 113c
000000a0: f670 9fbd febd c2bd cfac b23d c572 64bd
000000b0: 9a9d 1dbd f1cc be3c e66d 893d 759d c2bc
000000c0: 0dc0 8c3d 0e23 153d be64 853d 5ef7 883d
000000d0: 889c 83bd 659f 2dbd 6932 63bc d028 913d
000000e0: 2f5c 8fbc 173f bcbd f753 8abd 3ec8 563d
000000f0: 697c 70bd 9d17 13bd 84d4 3a3c a301 c13c
00000100: 43b7 23bd 3d23 a43c fcb6 58bc e056 293c
00000110: 3770 6ebd 8af1 c3bc 43aa 95bc 5527 283d
00000120: cfc0 aabd 6f5e a9bd 52d3 f1bc 7e92 eabc
00000130: 7741 a8bd 1ad6 713d 51bc 79bd 51fd 55bd
00000140: 679e f93c bd6e 873d 8ee1 a2bd fa94 0bbc
00000150: 508b acbd 6a7b c93b 6b70 893d f66e 8a3c
00000160: 5350 e83c 774e a53d 84ce c4bd e402 33bc
00000170: 6a34 b93c 3c29 f33b 6156 703d 3a80 173c
00000180: e548 593d f36a 80bc 7e6b 34bc 99d3 3dbd
00000190: 3dd7 0e3d 8104 dbbc 3178 90bb 9a67 a4bd
000001a0: 0103 bb3d 51bd b53d 56ec 62bd 33a1 8bbd
000001b0: afa2 acbd 46bc 3bbd cd90 b63d 9e17 c7bc
000001c0: ed0c fb3c 9d19 70bd 70e3 9e3d c2d8 ea3c
000001d0: 175f ebbc caa4 8dbd 67cd 02bc 7d10 6dbd
000001e0: c251 8a3d 4880 183d 5b20 963c ff1e 1f3d
000001f0: fb3a 953d 4fc9 bebd 5832 70bd 5135 6dbc
00000200: b9c8 323c f450 9a3d 81c7 7bbd 7ec9 ddbb
00000210: e248 c03a 7bce bebc 136a 2d3d efa3 83bd
00000220: 9abe ad3d 857b 9bbd 627f 0a3d 8555 94bd
00000230: 31d9 b8bd 5247 723d cbca 863d 4cac c2bd
00000240: d47c da3c 6aa5 debc 6396 ad3d c102 b63d
00000250: 7573 b53d 8c2d 5f3d ea23 9e3d 23cb 373d
00000260: a934 1fbd 6302 2e3d a467 193d 6faa 973d
00000270: ebec 833d 85e8 1cbc 188d b53d 87a6 2d3c
00000280: 0af5 d3bc 36d1 8fbd 4910 1f3d ce66 a93d
00000290: dcf6 19bd 8435 43bd 6aa9 943d 0322 54bd
000002a0: 722a 093c 0360 5ebd 2000 f73c 411e b5bd
000002b0: 83f9 c1bc 2a3b ad3c 8d53 77bc 4277 933d
000002c0: 4597 bcbd 3bdd ae3d 39a1 803d 53f8 f5bb
000002d0: b379 023d 8f90 81bc 4bf2 e1bc d3bd e4bc
000002e0: 8714 27bd d948 9fbd 946e 603c ed07 3fbd
000002f0: bc83 893d f224 69bd f376 9a3d a33a bfbd
00000300: d550 ad3d 1799 a0bd 24b4 d43c 0445 6f3c
00000310: 4eb4 313d 8fe3 7abd ee77 ac3d 9ae2 a23d
00000320: 970c 143d ffda 6c3d 7ddb 28bd 235d 81bd
00000330: 73e9 a9bd 8bb5 98b9 3e80 6f3c e34e ae3d
00000340: 24dd 9dbd aec0 98bc 8dfc f4bc c7cb 093d
00000350: 178a 853d d512 523b ebe7 abbd 66cd 87bd
00000360: 0cdb eebc 49fb 49bd c477 993d 721d c8bc
00000370: c60b 943d 601d 9bbd ef93 0dbb 8cf9 bdbd
00000380: ec0b 55bd 71b8 06bd 399a 853d 2493 b1bc
00000390: f9e4 0c3d 7b45 033d cd26 8ebd dd8b 063d
000003a0: f82e 71bd 0dc1 6f3d e72d 2a3d e9d1 8ebd
000003b0: 5568 75bd e384 e13c 1fdc 5bbd c30d c1bc
000003c0: 76c8 ecbc b651 3c3b 758d 97bc ec34 d6bc
000003d0: e345 8c3d 9060 f33c a418 72bd 3f18 89bd
000003e0: 1999 573c d8a9 88bd 9af1 17bd d426 9fbd
000003f0: 6809 75bd c9b0 073d fe58 6f3d c552 35bb

tpcnns.4.bias f4 [12]
0.0339118 0.076393835 -0.08551848 0.022936402 -0.09501033 0.03291213 0.006447219 -0.016919434
-0.087170795 0.058729548 -0.06738494 0.016700374
00000000: 19e7 0a3d 5f74 9c3d 5024 afbd 1fe5 bb3c
00000010: c794 c2bd dfce 063d 3143 d33b a09a 8abc
00000020: 9a86 b2bd 658e 703d 1e01 8abd 39cf 883c

tpcnn_ouput.weight f4 [12, 12, 3, 3]
0.0133299185 0.046022873 -0.035082616 0.013802089 0.010142523 -0.0014953907 -0.049467977 0.06692345
0.030856602 0.009107724 -0.04645446 -0.014951392 -0.019304981 -0.09222317 -0.050055154 -0.020202233
-0.076425396 -0.042684678 -0.00032207157 0.11787318 -0.09062621 -0.01253741 0.041326627 -0.053874187
-0.02904794 0.027443636 0.0064721853 0.10900211 0.021268457 0.080436654 -0.057126492 -0.05588596
-0.02104469 0.08484162 0.020255852 0.019881431 -0.034012273 -0.12060311 -0.03322462 -0.005207301
0.037838735 -0.025830613 0.060434464 -0.024232602 0.0682172 0.0024290741 0.077013955 0.043527182
-0.014375484 0.033583328 -0.017689249 0.022704972 -0.04395221 -0.009364237 0.03878909 -0.1464537
0.007833131 0.06930284 -0.016735299 -0.015568057 -0.08089108 -0.021629857 -0.009089535 0.034747142
0.04032024 0.0018813489 -0.026276117 -0.024318617 -0.050787732 0.053461455 -0.0017540279 -0.09018531
-0.061885793 -0.11639622 0.066756435 -0.09548866 -0.047936812 0.04774905 -0.009524925 0.09779027
0.028537156 -0.055903055 0.105104774 -0.01927474 -0.050754733 0.096945204 0.023572862 0.11294323
0.083546385 0.01477412 0.1144949 0.082270354 0.06759268 -0.039598074 -0.01710412 -0.025535112
0.012410181 0.028885487 0.012199979 -0.0634257 0.045336198 -0.02064981 0.030825503 -0.035320412
-0.019569565 -0.028545959 -0.0065605016 0.026107665 0.005203053 -0.06415276 -0.008739847 0.028745253
-0.026549304 0.0016440342 0.06972559 0.08213909 -0.009619232 -0.018102279 -0.037781157 0.001810791
-0.03414353 -0.10242176 0.013755278 -0.07002898 -0.11329269 -0.060015123 0.08839092 0.061866388
-0.08630328 -0.036072273 0.06683671 0.009707573 -0.013085704 0.11535339 -0.06205236 0.066419594
0.065465726 0.07228006 -0.056870382 -0.09992019 -0.024978988 0.07615635 -0.08470628 0.08159165
0.014130465 -0.08282945 -0.058617927 0.0012216574 0.017168533 0.050442822 -0.035349112 0.047683544
0.0022954554 0.019731918 0.07836508 0.0331477 -0.024136653 0.04261559 0.010942538 -0.096293256
0.009051773 -0.04875037 0.07002178 -0.09326798 -0.0017851865 0.070476994 -0.071165524 0.026594117
0.017544748 -0.00978186 -0.0753692 0.074876614 0.039850812 0.067374036 -0.042063642 -0.0024129462
0.02391193 0.05822281 -0.00046377935 -0.14518365 -0.106225625 -0.040929694 0.07167599 -0.03783535
-0.04634064 -0.02217635 -0.020420263 0.094392605 -0.024006147 -0.07583632 0.10667165 0.069902174
-0.046356194 0.0641204 0.039883714 0.08033635 0.13812494 0.08367536 0.09573789 0.13458388
0.014453702 -0.011064066 -0.03327129 -0.07261591 -0.007943625 0.06809408 -0.0020625398 -0.011678368
-0.01209895 -0.03273779 -0.019222444 -0.05208723 0.03980946 0.025568293 -0.030160304 -0.067872696
-0.0018205814 -0.12840843 -0.07012389 0.106956385 0.055642474 -0.0723449 0.1086651 0.04441956
-0.014696213 -0.0347399 0.072876535 0.046980143 0.028445147 -0.020369152 0.025949052 -0.011297074
-0.06274053 0.0100406455 -0.02542679 -0.022167526 0.07518971 0.010241218 -0.012791494 -0.065884486
-0.01370956 0.13230368 -0.054284636 -0.0066242814 0.0072931387 -0.025820676 0.010727792 -0.048788432
0.05022046 0.10713003 -0.0045666425 0.037879463 0.024540268 -0.019657979 -0.05402675 -0.0021024456
00000000: bb65 5a3c 7b82 3c3d cab2 0fbd 2822 623c
00000010: d32c 263c fc00 c4ba ef9e 4abd 290f 893d
00000020: fcc6 fc3c 9038 153c 0847 3ebd aff6 74bc
00000030: 7b25 9ebc 80df bcbd a206 4dbd 277f a5bc
00000040: eb84 9cbd 21d6 2ebd b7db a8b9 7e67 f13d
00000050: 3c9a b9bd b569 4dbc 1c46 293d 2eab 5cbd
00000060: f2f5 edbc 7ad1 e03c a014 d43b 803c df3d
00000070: 303b ae3c f9bb a43d 78fd 69bd ade8 64bd
00000080: ea65 acbc 71c1 ad3d 9aef a53c 62de a23c
00000090: 7450 0bbd c3fe f6bd 8a16 08bd 02a2 aabb
000000a0: cafc 1a3d b99a d3bc 218a 773d 7383 c6bc
000000b0: 76b5 8b3d 1a31 1f3b 7eb9 9d3d 8f49 323d
000000c0: 2687 6bbc ac8e 093d 0be9 90bc c7ff b93c
000000d0: 3c07 34bd 756c 19bc 4fe1 1e3d f5f7 15be
000000e0: 8856 003c a6ee 8d3d 7718 89bc 2a11 7fbc
000000f0: 39aa a5bd 1931 b1bc 46ec 14bc 0553 0e3d
00000100: d626 253d 9897 f63a 0341 d7bc d637 c7bc
00000110: cc06 50bd 66fa 5a3d 69e7 e5ba 13b3 b8bd
00000120: f57b 7dbd 2461 eebd 99b7 883d 8f8f c3bd
00000130: 6459 44bd 8294 433d 6e0e 1cbc 4446 c83d
00000140: c1c6 e93c 9afa 64bd 2c41 d73d 0fe6 9dbc
00000150: 32e4 4fbd 358b c63d e01b c13c c84e e73d
00000160: 5e1a ab3d 270f 723c 4d7c ea3d 5c7d a83d
00000170: 086e 8a3d 9731 22bd f11d 8cbc 032f d1bc
00000180: 1254 4b3c 42a1 ec3c 6ce2 473c 55e5 81bd
00000190: 73b2 393d ca29 a9bc c485 fc3c 23ac 10bd
000001a0: 5a50 a0bc 37d9 e9bc 7af9 d6bb bedf d53c
000001b0: 5f7e aa3b 8662 83bd 9331 0fbc 2a7b eb3c
000001c0: ed7d d9bc a27c d73a 4acc 8e3d 8a38 a83d
000001d0: fc99 1dbc 3b4b 94bc 6ac0 1abd 1058 ed3a
000001e0: 16da 0bbd 80c2 d1bd d15d 613c 5b6b 8fbd
000001f0: ff05 e8bd 6bd2 75bd 4c06 b53d 9c67 7d3d
00000200: c6bf b0bd 85c0 13bd afe1 883d 830c 1f3c
00000210: 6c65 56bc 663e ec3d 9e2a 7ebd ff06 883d
00000220: e512 863d 9107 943d ebf0 68bd f5a2 ccbd
00000230: bca0 ccbc dcf7 9b3d 7c7a adbd 8619 a73d
00000240: 7783 673c 7da2 a9bd 5a19 70bd 0520 a03a
00000250: 06a5 8c3c 229d 4e3d 3bca 10bd d24f 433d
00000260: 5a6f 163b d5a4 a13c df7d a03d e2c5 073d
00000270: 3bba c5bc af8d 2e3d 5548 333c 6635 c5bd
00000280: e34d 143c 78ae 47bd 9467 8f3d 4803 bfbd
00000290: ebfc e9ba 3e56 903d 3bbf 91bd e8db d93c
000002a0: 01ba 8f3c 1844 20bc 2b5b 9abd e958 993d
000002b0: 9b3a 233d 66fb 893d ed4a 2cbd 8522 1ebb
000002c0: f4e2 c33c 0b7b 6e3d 6927 f3b9 06ab 14be
000002d0: d28c d9bd e5a5 27bd ddca 923d 3df9 1abd
000002e0: afcf 3dbd 2dab b5bc 6548 a7bc e950 c13d
000002f0: 8aa8 c4bc 1350 9bbd ab76 da3d df28 8f3d
00000300: fedf 3dbd 8e51 833d 1b5d 233d 6287 a43d
00000310: a070 0d3e fd5d ab3d 3a12 c43d 5bd0 093e
00000320: 38cf 6c3c 0e46 35bc 7a47 08bd a6b7 94bd
00000330: fa25 02bc e974 8b3d ad2b 07bb a056 3fbc
00000340: ad3a 46bc 1018 06bd 6378 9dbc 6b59 55bd
00000350: 3f0f 233d 9974 d13c be12 f7bc d700 8bbd
00000360: 93a0 eeba 807d 03be 1d9d 8fbd f30b db3d
00000370: 5de9 633d 9029 94bd cf8b de3d 49f1 353d
00000380: 63c8 70bc 6d4b 0ebd 4b40 953d 406e 403d
00000390: cc05 e93c 35dd a6bc 1b93 d43c 5d17 39bc
000003a0: 1b7e 80bd 8581 243c d84b d0bc ac98 b5bc
000003b0: 10fd 993d c8ca 273c 6a93 51bc 72ee 86bd
000003c0: 109e 60bc 9e7a 073e 9159 5ebd 8010 d9bb
000003d0: 48fb ee3b e285 d3bc 9fc3 2f3c 61d6 47bd
000003e0: f8b3 4d3d fd66 db3d c6a3 95bb 7f27 1b3d
000003f0: ac08 c93c c509 a1bc 274b 5dbd 2fc9 09bb

tpcnn_ouput.bias f4 [12]
0.0096195815 0.019024173 -0.08902325 0.003291163 -0.11186184 -0.39789897 -0.4830036 -0.62141234
-0.6595736 -0.46060076 0.029241491 0.029578744
00000000: 739b 1d3c 95d8 9b3c d251 b6bd 8db0 573b
00000010: d217 e5bd 6ab9 cbbe 3f4c f7be e114 1fbf
00000020: d1d9 28bf ddd3 ebbe da8b ef3c 1f4f f23c
